EPII_CM55M_APP_S/app/scenario_app/edge_impulse_firmware/ei-model/face-detection.tflite (tflite, 48528 bytes, 2 tensors)

main_split_1_command_stream u1 [7368]
000000 43 4f 50 31 01 00 10 00 06 10 00 00 00 00 06 10
       67 79 80 49 1 0 16 0 6 16 0 0 0 0 6 16
000010 05 00 00 00 05 00 00 00 05 00 00 00 02 00 2a 07
       5 0 0 0 5 0 0 0 5 0 0 0 2 0 42 7
000020 30 01 00 00 30 40 00 00 10 28 00 00 31 01 01 00
       48 1 0 0 48 64 0 0 16 40 0 0 49 1 1 0
000030 31 40 00 00 00 70 00 00 32 40 00 00 80 02 00 00
       49 64 0 0 0 112 0 0 50 64 0 0 128 2 0 0
000040 10 00 00 00 0f 01 01 00 00 40 00 00 00 40 00 00
       16 0 0 0 15 1 1 0 0 64 0 0 0 64 0 0
000050 01 40 00 00 00 00 00 00 02 40 00 00 00 00 00 00
       1 64 0 0 0 0 0 0 2 64 0 0 0 0 0 0
000060 03 40 00 00 00 00 00 00 0b 01 3f 00 0c 01 3f 00
       3 64 0 0 0 0 0 0 11 1 63 0 12 1 63 0
000070 0a 01 1f 00 04 01 05 00 06 40 00 00 01 00 00 00
       10 1 31 0 4 1 5 0 6 64 0 0 1 0 0 0
000080 05 40 00 00 c0 00 00 00 04 40 00 00 06 00 00 00
       5 64 0 0 192 0 0 0 4 64 0 0 6 0 0 0
000090 09 01 80 ff 05 01 01 00 07 01 00 00 00 01 00 00
       9 1 128 255 5 1 1 0 7 1 0 0 0 1 0 0
0000a0 01 01 00 00 03 01 01 00 02 01 01 00 1f 01 01 00
       1 1 0 0 3 1 1 0 2 1 1 0 31 1 1 0
0000b0 10 40 00 00 00 00 00 00 11 40 00 00 00 00 00 00
       16 64 0 0 0 0 0 0 17 64 0 0 0 0 0 0
0000c0 12 40 00 00 00 00 00 00 13 40 00 00 00 00 00 00
       18 64 0 0 0 0 0 0 19 64 0 0 0 0 0 0
0000d0 1b 01 1f 00 1c 01 1f 00 1a 01 1f 00 12 01 1f 00
       27 1 31 0 28 1 31 0 26 1 31 0 18 1 31 0
0000e0 11 01 1f 00 13 01 0f 00 16 40 00 00 00 02 00 00
       17 1 31 0 19 1 15 0 22 64 0 0 0 2 0 0
0000f0 15 40 00 00 00 02 00 00 14 40 00 00 10 00 00 00
       21 64 0 0 0 2 0 0 20 64 0 0 16 0 0 0

main_split_1_flash u1 [39856]
000000 00 00 00 00 00 00 00 00 00 00 00 00 00 00 00 00
       0 0 0 0 0 0 0 0 0 0 0 0 0 0 0 0
000010 00 00 00 00 00 00 00 00 00 00 00 00 00 00 00 00
       0 0 0 0 0 0 0 0 0 0 0 0 0 0 0 0
000020 00 00 00 00 00 00 00 00 00 00 00 00 00 00 00 00
       0 0 0 0 0 0 0 0 0 0 0 0 0 0 0 0
000030 00 00 00 00 00 00 00 00 00 00 00 00 00 00 00 00
       0 0 0 0 0 0 0 0 0 0 0 0 0 0 0 0
000040 00 00 00 00 00 00 00 00 00 00 00 00 00 00 00 00
       0 0 0 0 0 0 0 0 0 0 0 0 0 0 0 0
000050 00 00 00 00 00 00 00 00 00 00 00 00 00 00 00 00
       0 0 0 0 0 0 0 0 0 0 0 0 0 0 0 0
000060 00 00 00 00 00 00 00 00 00 00 00 00 00 00 00 00
       0 0 0 0 0 0 0 0 0 0 0 0 0 0 0 0
000070 00 00 00 00 00 00 00 00 00 00 00 00 00 00 00 00
       0 0 0 0 0 0 0 0 0 0 0 0 0 0 0 0
000080 00 00 00 00 00 00 00 00 00 00 00 00 00 00 00 00
       0 0 0 0 0 0 0 0 0 0 0 0 0 0 0 0
000090 00 00 00 00 00 00 00 00 00 00 00 00 00 00 00 00
       0 0 0 0 0 0 0 0 0 0 0 0 0 0 0 0
0000a0 00 00 00 00 00 00 00 00 00 00 00 00 00 00 00 00
       0 0 0 0 0 0 0 0 0 0 0 0 0 0 0 0
0000b0 00 00 00 00 00 00 00 00 00 00 00 00 00 00 00 00
       0 0 0 0 0 0 0 0 0 0 0 0 0 0 0 0
0000c0 00 00 00 00 00 00 00 00 00 00 00 00 00 00 00 00
       0 0 0 0 0 0 0 0 0 0 0 0 0 0 0 0
0000d0 00 00 00 00 00 00 00 00 00 00 00 00 00 00 00 00
       0 0 0 0 0 0 0 0 0 0 0 0 0 0 0 0
0000e0 00 00 00 00 00 00 00 00 00 00 00 00 00 00 00 00
       0 0 0 0 0 0 0 0 0 0 0 0 0 0 0 0
0000f0 00 00 00 00 00 00 00 00 00 00 00 00 00 00 00 00
       0 0 0 0 0 0 0 0 0 0 0 0 0 0 0 0
